Namespace(batch_size=512, beta1=0.5, beta2=0.999, channels=1, d_conv_dim=64, d_lr=0.0004, dataroot='../data', dataset='mnist', epochs=100000, g_conv_dim=64, g_lr=0.0001, g_num=5, img_size=64, log_path='./logs', log_step=10, model='dcgan', model_save_path='./models', model_save_step=1.0, num_workers=2, parallel=False, pretrained_model=None, sample_path='./samples', sample_step=100, train=True, use_tensorboard=True, version='1126_mnist_100kepochs_hatano', z_dim=100)
Generator(
  (l1): Sequential(
    (0): ConvTranspose2d(100, 512, kernel_size=(4, 4), stride=(1, 1), bias=False)
    (1): BatchNorm2d(512, eps=1e-05, momentum=0.1, affine=True, track_running_stats=True)
    (2): ReLU(inplace=True)
  )
  (l2): Sequential(
    (0): ConvTranspose2d(512, 256, kernel_size=(4, 4), stride=(2, 2), padding=(1, 1), bias=False)
    (1): BatchNorm2d(256, eps=1e-05, momentum=0.1, affine=True, track_running_stats=True)
    (2): ReLU(inplace=True)
  )
  (l3): Sequential(
    (0): ConvTranspose2d(256, 128, kernel_size=(4, 4), stride=(2, 2), padding=(1, 1), bias=False)
    (1): BatchNorm2d(128, eps=1e-05, momentum=0.1, affine=True, track_running_stats=True)
    (2): ReLU(inplace=True)
  )
  (l4): Sequential(
    (0): ConvTranspose2d(128, 64, kernel_size=(4, 4), stride=(2, 2), padding=(1, 1), bias=False)
    (1): BatchNorm2d(64, eps=1e-05, momentum=0.1, affine=True, track_running_stats=True)
    (2): ReLU(inplace=True)
  )
  (last): Sequential(
    (0): ConvTranspose2d(64, 1, kernel_size=(4, 4), stride=(2, 2), padding=(1, 1), bias=False)
    (1): Tanh()
  )
)
Discriminator(
  (l1): Sequential(
    (0): Conv2d(1, 64, kernel_size=(4, 4), stride=(2, 2), padding=(1, 1), bias=False)
    (1): LeakyReLU(negative_slope=0.2, inplace=True)
  )
  (l2): Sequential(
    (0): Conv2d(64, 128, kernel_size=(4, 4), stride=(2, 2), padding=(1, 1), bias=False)
    (1): BatchNorm2d(128, eps=1e-05, momentum=0.1, affine=True, track_running_stats=True)
    (2): LeakyReLU(negative_slope=0.2, inplace=True)
  )
  (l3): Sequential(
    (0): Conv2d(128, 256, kernel_size=(4, 4), stride=(2, 2), padding=(1, 1))
    (1): BatchNorm2d(256, eps=1e-05, momentum=0.1, affine=True, track_running_stats=True)
    (2): LeakyReLU(negative_slope=0.2, inplace=True)
  )
  (l4): Sequential(
    (0): Conv2d(256, 512, kernel_size=(4, 4), stride=(2, 2), padding=(1, 1))
    (1): BatchNorm2d(512, eps=1e-05, momentum=0.1, affine=True, track_running_stats=True)
    (2): LeakyReLU(negative_slope=0.2, inplace=True)
  )
  (last_adv): Sequential(
    (0): Conv2d(512, 1, kernel_size=(4, 4), stride=(1, 1), bias=False)
  )
)
Elapsed [0:00:50.008285], G_step [0/100000], D_step[0/100000], d_out_gp: 0.3363, g_loss: 10.6377, 
Elapsed [0:00:48.614953], G_step [10/100000], D_step[10/100000], d_out_gp: 0.5041, g_loss: 2.5764, 
Elapsed [0:00:48.666688], G_step [20/100000], D_step[20/100000], d_out_gp: 0.3655, g_loss: 4.5754, 
Elapsed [0:00:48.628033], G_step [30/100000], D_step[30/100000], d_out_gp: 0.3392, g_loss: 5.0452, 
…
